tests/w2v/class_w2v_with_bg.npy (npy, 7328 bytes, 1 tensors)

array f4 [6, 300]
00000000: 0000 ef3d 0000 00be 0000 44be 0000 43be
00000010: 0000 3dbe 0000 d23d 0000 d03a 0000 cdbd
00000020: 0000 a23d 0000 70be 0000 6b3e 0000 5ebd
00000030: 0000 92bd 0000 45be 0000 7ebe 0000 763e
00000040: 0000 7abd 0000 223e 0000 26be 0000 16bf
00000050: 0000 34be 0000 da3d 0000 4ebe 0000 90bb
00000060: 0000 aabe 0000 a7bd 0000 3fbd 0000 ccbd
00000070: 0000 95be 0000 47bc 0000 0bbd 0000 c9bd
00000080: 0000 81bc 0000 87bd 0000 fcbd 0000 ca3d
00000090: 0000 dfbd 0000 3f3e 0000 1e3d 0000 bcbd
000000a0: 0000 293e 0000 07be 0000 07be 0000 ab3d
000000b0: 0000 b8bd 0000 9c3b 0000 ccbe 0000 4abd
000000c0: 0000 83bc 0000 9ebe 0000 16bd 0000 6abe
000000d0: 0000 9d3d 0000 13be 0000 9c3d 0000 dd3d
000000e0: 0000 e2bb 0000 eebd 0000 96bd 0000 c1be
000000f0: 0000 e3bd 0000 27be 0000 97bd 0000 bcbd
00000100: 0000 d8bc 0000 693e 0000 57be 0000 b33d
00000110: 0000 d23d 0000 d4bd 0000 86bc 0000 b6bd
00000120: 0000 2a3e 0000 923d 0000 74bd 0000 053e
00000130: 0000 553e 0000 783e 0000 8d3e 0000 bf3d
00000140: 0000 f03d 0000 233e 0000 1a3e 0000 4ebd
00000150: 0000 313e 0000 58be 0000 20be 0000 fb3d
00000160: 0000 e63d 0000 7bbd 0000 433d 0000 fcbd
00000170: 0000 c8bd 0000 763e 0000 5dbd 0000 20be
00000180: 0000 e73c 0000 b73d 0000 1abe 0000 efbc
00000190: 0000 92be 0000 8b3c 0000 aebc 0000 193e
000001a0: 0000 58be 0000 87bd 0000 b3bc 0000 383e
000001b0: 0000 4e3e 0000 85be 0000 c8bc 0000 843e
000001c0: 0000 6d3d 0000 30be 0000 8d3d 0000 c6bc
000001d0: 0000 d5bd 0000 5c3d 0000 86bc 0000 083e
000001e0: 0000 69be 0000 64be 0000 1d3c 0000 333e
000001f0: 0000 9cbb 0000 1d3e 0000 1abd 0000 42bd
00000200: 0000 d53d 0000 633c 0000 69bd 0000 a3be
00000210: 0000 1bbe 0000 53bd 0000 a83d 0000 de3d
00000220: 0000 1f3e 0000 ef3c 0000 10bd 0000 a4bd
00000230: 0000 33bd 0000 82bd 0000 f6bd 0000 a03e
00000240: 0000 4f3d 0000 0e3e 0000 bd3d 0000 2a3d
00000250: 0000 72bc 0000 253e 0000 633e 0000 053e
00000260: 0000 0fbc 0000 8dbd 0000 47be 0000 d93b
00000270: 0000 52be 0000 25be 0000 84bd 0000 fcbd
00000280: 0000 c5bd 0000 82bd 0000 00bd 0000 393d
00000290: 0000 d23b 0000 11be 0000 233d 0000 41be
000002a0: 0000 993d 0000 d53e 0000 e6bc 0000 4c3e
000002b0: 0000 533e 0000 b5be 0000 493e 0000 c4bd
000002c0: 0000 323d 0000 26be 0000 cf3d 0000 debd
000002d0: 0000 45be 0000 2bbe 0000 25bd 0000 b03c
000002e0: 0000 fbbd 0000 77be 0000 62bd 0000 89be
000002f0: 0000 47bb 0000 5d3d 0000 013e 0000 863d
00000300: 0000 083d 0000 12be 0000 a73e 0000 683e
00000310: 0000 a2bd 0000 07bd 0000 e3bd 0000 b23d
00000320: 0000 abbd 0000 893e 0000 85be 0000 88be
00000330: 0000 9c3e 0000 ca3b 0000 bb3d 0000 23bd
00000340: 0000 313d 0000 b13d 0000 76be 0000 2abe
00000350: 0000 72bd 0000 4f3d 0000 763d 0000 043e
00000360: 0000 bebd 0000 853e 0000 d1bc 0000 97be
00000370: 0000 8fbd 0000 7e3e 0000 9fbe 0000 a9bd
00000380: 0000 863c 0000 66be 0000 4d3d 0000 063e
00000390: 0000 29be 0000 863c 0000 33bd 0000 59be
000003a0: 0000 a6bd 0000 1abd 0000 fa3c 0000 93bc
000003b0: 0000 413e 0000 88bb 0000 683e 0000 e0bd
000003c0: 0000 6cbe 0000 a23d 0000 aabe 0000 073e
000003d0: 0000 45bb 0000 2dbd 0000 09be 0000 d6bd
000003e0: 0000 17be 0000 11be 0000 523e 0000 d93b
000003f0: 0000 e6bd 0000 ffbb 0000 0cbe 0000 d0bd
0.11669922 -0.125 -0.19140625 -0.19042969 -0.18457031 0.10253906 0.0015869141 -0.100097656
0.07910156 -0.234375 0.22949219 -0.05419922 -0.07128906 -0.19238281 -0.24804688 0.24023438
-0.061035156 0.15820312 -0.16210938 -0.5859375 -0.17578125 0.10644531 -0.20117188 -0.0043945312
-0.33203125 -0.08154297 -0.04663086 -0.099609375 -0.29101562 -0.012145996 -0.033935547 -0.09814453
-0.01574707 -0.06591797 -0.123046875 0.09863281 -0.10888672 0.18652344 0.03857422 -0.091796875
0.16503906 -0.13183594 -0.13183594 0.083496094 -0.08984375 0.004760742 -0.3984375 -0.049316406
-0.015991211 -0.30859375 -0.036621094 -0.22851562 0.076660156 -0.14355469 0.076171875 0.107910156
-0.0068969727 -0.11621094 -0.07324219 -0.37695312 -0.110839844 -0.16308594 -0.07373047 -0.091796875
-0.026367188 0.22753906 -0.20996094 0.087402344 0.10253906 -0.103515625 -0.016357422 -0.08886719
0.16601562 0.07128906 -0.059570312 0.12988281 0.20800781 0.2421875 0.27539062 0.09326172
0.1171875 0.15917969 0.15039062 -0.05029297 0.17285156 -0.2109375 -0.15625 0.122558594
0.11230469 -0.061279297 0.047607422 -0.123046875 -0.09765625 0.24023438 -0.053955078 -0.15625
0.028198242 0.08935547 -0.15039062 -0.029174805 -0.28515625 0.016967773 -0.021240234 0.14941406
-0.2109375 -0.06591797 -0.021850586 0.1796875 0.20117188 -0.25976562 -0.024414062 0.2578125
0.057861328 -0.171875 0.068847656 -0.024169922 -0.104003906 0.053710938 -0.016357422 0.1328125
-0.22753906 -0.22265625 0.0095825195 0.17480469 -0.004760742 0.15332031 -0.037597656 -0.04736328
0.104003906 0.0138549805 -0.056884766 -0.31835938 -0.15136719 -0.051513672 0.08203125 0.10839844
0.15527344 0.029174805 -0.03515625 -0.080078125 -0.043701172 -0.06347656 -0.12011719 0.3125
0.05053711 0.13867188 0.092285156 0.041503906 -0.014770508 0.16113281 0.22167969 0.12988281
-0.008728027 -0.068847656 -0.19433594 0.0066223145 -0.20507812 -0.16113281 -0.064453125 -0.123046875
-0.096191406 -0.06347656 -0.03125 0.045166016 0.0064086914 -0.14160156 0.039794922 -0.18847656
0.07470703 0.41601562 -0.028076172 0.19921875 0.20605469 -0.35351562 0.19628906 -0.095703125
0.04345703 -0.16210938 0.10107422 -0.10839844 -0.19238281 -0.16699219 -0.040283203 0.021484375
-0.122558594 -0.24121094 -0.05517578 -0.26757812 -0.003036499 0.053955078 0.12597656 0.06542969
0.033203125 -0.14257812 0.32617188 0.2265625 -0.07910156 -0.032958984 -0.110839844 0.08691406
-0.083496094 0.26757812 -0.25976562 -0.265625 0.3046875 0.006164551 0.091308594 -0.039794922
0.04321289 0.08642578 -0.24023438 -0.16601562 -0.05908203 0.05053711 0.060058594 0.12890625
-0.09277344 0.25976562 -0.025512695 -0.29492188 -0.06982422 0.24804688 -0.31054688 -0.08251953
0.016357422 -0.22460938 0.050048828 0.13085938 -0.16503906 0.016357422 -0.043701172 -0.21191406
-0.08105469 -0.037597656 0.030517578 -0.017944336 0.18847656 -0.0041503906 0.2265625 -0.109375
-0.23046875 0.07910156 -0.33203125 0.13183594 -0.0030059814 -0.042236328 -0.13378906 -0.10449219
-0.14746094 -0.14160156 0.20507812 0.0066223145 -0.11230469 -0.0077819824 -0.13671875 -0.1015625
